best_model.pth (torch, 3046 bytes, 5 tensors)

lstm.weight_ih_l0 f4 [16, 1]
0.67608863 1.1611061 0.42966884 1.7041593 0.37176898 1.215007 0.7716342 1.7698898
1.1535546 2.081581 0.5613665 -0.8537625 1.0600874 1.0518411 2.0894103 1.553732
00000000: 2514 2d3f 209f 943f 8efd db3e e421 da3f
00000010: 8158 be3e 5985 9b3f d289 453f c08b e23f
00000020: ada7 933f a038 0540 b7b5 0f3f 2e90 5abf
00000030: f2b0 873f bba2 863f e6b8 0540 b1e0 c63f

lstm.weight_hh_l0 f4 [16, 4]
-0.208067 -0.51958203 -0.3661113 0.24012114 0.20932704 -0.40473336 -0.4358921 -0.02833818
-0.023253286 -0.22063182 0.6303178 -0.67376524 -0.43122602 -0.73405147 -0.80291456 0.6405608
-0.43677378 -0.2817988 -0.6802282 0.09876487 0.22988038 -0.05266194 -0.066458814 0.7714094
0.27001092 0.43998882 0.48356387 -0.5330536 0.07713498 -0.48367694 -0.35484943 0.9691447
0.009167991 -0.21434204 -0.7006701 0.6195512 -1.0383853 -1.1084752 -0.26179695 0.6057879
0.13124406 0.5399743 0.62096024 -0.31915274 -0.37945682 0.22564541 -0.65227187 0.37501085
0.24303344 -0.16544728 -0.54193306 0.38567764 -0.16034395 0.3488502 -0.0038764095 0.6406845
-0.19186011 0.18380539 -0.5516175 1.1448483 -0.27457318 -0.38531786 -0.2989496 0.9769469
00000000: 840f 55be 5403 05bf f172 bbbe 51e2 753e
00000010: d459 563e 3639 cfbe 402d dfbe 7925 e8bc
00000020: ad7d bebc 4fed 61be 825c 213f e17b 2cbf
00000030: a8c9 dcbe ccea 3bbf cf8b 4dbf cbfb 233f
00000040: d0a0 dfbe ef47 90be 6f23 2ebf 3c45 ca3d
00000050: c365 6b3e 0cb4 57bd 8f1b 88bd 167b 453f
00000060: df3e 8a3e 3746 e13e af95 f73e 3376 08bf
00000070: f2f8 9d3d 81a4 f7be d3ae b5be de19 783f
00000080: 5735 163c 7b7c 5bbe 1e5f 33bf e89a 1e3f
00000090: cfe9 84bf 84e2 8dbf 400a 86be ea14 1b3f
000000a0: d864 063e c13b 0a3f 40f7 1e3f fd67 a3be
000000b0: 2a48 c2be 970f 673e 4afb 26bf 6c01 c03e
000000c0: c2dd 783e 036b 29be 20bc 0abf 8a77 c53e
000000d0: 3431 24be 7e9c b23e 5c0b 7ebb e603 243f
000000e0: fa76 44be 7b37 3c3e ce36 0dbf 648a 923f
000000f0: db94 8cbe 6248 c5be ec0f 99be 3119 7a3f

lstm.bias_ih_l0 f4 [16]
-0.39980936 -0.6088384 0.22491841 0.28475672 -0.062105194 -0.3447643 0.30413067 -0.27321506
0.17194502 -0.2005357 0.76656854 -0.19561197 -0.3010728 -0.01919393 -0.19930035 0.061400883
00000000: d0b3 ccbe d5dc 1bbf 0351 663e a2cb 913e
00000010: 0462 7ebd f284 b0be 04b7 9b3e d8e2 8bbe
00000020: 5b12 303e 3b59 4dbe d63d 443f 814e 48be
00000030: 3726 9abe 973c 9dbc 6415 4cbe 7e7f 7b3d

lstm.bias_hh_l0 f4 [16]
-0.74499035 -0.1773333 0.2547352 -0.13025048 -0.45649794 -0.34255612 0.27466744 -0.13681284
-0.0056354916 -0.018034007 0.68575776 -0.59720266 -0.20976514 -0.08586769 -0.5544901 -0.23811015
00000000: b0b7 3ebf dc96 35be a76c 823e 6260 05be
00000010: 19ba e9be 8463 afbe 36a1 8c3e aa18 0cbe
00000020: eea9 b8bb 0ebc 93bc d28d 2f3f 46e2 18bf
00000030: accc 56be 66db afbd 10f3 0dbf 26d3 73be

fc.weight f4 [1, 4]
0.17935343 0.21124306 0.42014003 -0.53377146
00000000: 6da8 373e 1a50 583e 981c d73e 3fa5 08bf
