best_model.pth (torch, 3046 bytes, 5 tensors)

lstm.weight_ih_l0 f4 [16, 1]
00000000: 483d 693e 9d56 863d d308 133f 2b91 a2be
00000010: d4c6 f53e d5a7 00be 425e 8d3f 1b76 b1bd
00000020: ce1d ed3e 9d3c 453e 1b0d a0bf 8af5 383f
00000030: 58ba 9cbe 6a5b c63e 5115 753f d72e a83e
0.22777283 0.06559489 0.5743534 -0.3175138 0.48003256 -0.12564023 1.104439 -0.08665105
0.46311802 0.19261403 -1.2504 0.7224966 -0.3061092 0.38741618 0.9573565 0.32848236

lstm.weight_hh_l0 f4 [16, 4]
00000000: ddd8 bebe 8558 a5be 25f0 873d 97db a2be
00000010: 591b e8bd 259b c43d adf0 3e3f 492b c33d
00000020: 132c 55be d4c2 34be 5a17 a6bc 7232 0bbf
00000030: 0b57 813d ebfa 50bf 38f2 363e 7a0e 473e
00000040: 0539 25bf 3f56 36bf ed90 6b3e ec6d 6b3e
00000050: ccca 3fbf eefb 4abf 2c2f 0d3f 52f2 76be
00000060: 2030 5b3d e5e2 41be e3c0 7ebe cece f9be
00000070: 1ae9 04bf 1e7a a1be f490 e63e 2ed7 1fbe
00000080: 66d6 bfbd fd84 9ebe e587 f03e e6bb 65bf
00000090: bfd4 e4be 11f3 04bf d025 0f3f 81b1 973e
000000a0: 9819 99be 4e81 9abd 6c5d 43be dd8a b33c
000000b0: a8a1 ae3c 6c51 dfbc 1354 db3e 357b bdbe
000000c0: a432 263e 7de8 9cbd 3f32 cb3e 04ec 1a3e
000000d0: dffd 07bf 254c 2cbf 5b70 a13e e597 f7be
000000e0: 3d51 06bf 8790 2cbf 6a9e e3bd 3e07 ab3e
000000f0: 2bdc 843e a38d 07be d444 4e3f 4d50 02bd
-0.3727483 -0.32294098 0.06637601 -0.3180816 -0.11333341 0.09599904 0.7458599 0.0952974
-0.20817594 -0.17652446 -0.020274807 -0.5437385 0.0631543 -0.8163287 0.17865837 0.19439116
-0.6454013 -0.7122535 0.23004504 0.2299115 -0.7491882 -0.79290664 0.55150104 -0.24115875
0.053512692 -0.1893421 -0.24878268 -0.48790592 -0.51918185 -0.3153848 0.45032465 -0.15609428
-0.09367065 -0.30960837 0.4697868 -0.89739835 -0.44693562 -0.5193339 0.5591707 0.29627612
-0.2990234 -0.07544194 -0.19078606 0.021916801 0.021317318 -0.027260505 0.4283758 -0.37008062
0.16230255 -0.07661531 0.39686772 0.15129095 -0.5312175 -0.6730369 0.31531033 -0.48358074
-0.5246771 -0.6740803 -0.111141995 0.33403963 0.25949225 -0.13237624 0.80573773 -0.031814862

lstm.bias_ih_l0 f4 [16]
00000000: 16c8 70be 3b48 45be d783 b33d 6b93 2abe
00000010: 8509 1fbe 8b5b cfbe e43d f03d 6f2a 70bf
00000020: 7b38 d8bd dfc6 003e af0e 053f 3b57 9ebe
00000030: 7a9a 90be 66b6 24be f59a 953d 9358 07bf
-0.23513827 -0.19265835 0.08765381 -0.16657798 -0.15530975 -0.4049953 0.11730555 -0.9381475
-0.10557648 0.12575863 0.5197553 -0.30925927 -0.28242856 -0.16085204 0.07304946 -0.5286953

lstm.bias_hh_l0 f4 [16]
00000000: ed06 25be b927 03bf 85fc 9e3e 5944 67be
00000010: 0a9e 803e 9631 18bf 4f4f 1abf 3d01 10bd
00000020: f43a d33c ed83 143e e731 a4be 7667 0a3d
00000030: 9081 8a3d cfd6 d83d 70c9 b93e 5187 1fbf
-0.16115923 -0.51232487 0.31052032 -0.22584666 0.25120574 -0.5945066 -0.60277265 -0.03515743
0.025784947 0.1450345 -0.32069322 0.033790074 0.06762993 0.105878465 0.36286497 -0.6231585

fc.weight f4 [1, 4]
00000000: eda9 243d 3d0c 1d3e 791c f9be ef3a 173e
0.040201116 0.153367 -0.48654535 0.14768575
