best_model.pth (torch, 3046 bytes, 5 tensors)

lstm.weight_ih_l0 f4 [16, 1]
00000000: 20c4 6f3f 71bc 1440 3aca d8be 7dff afbf
00000010: 72a6 153f f84b 2640 b8cf 0cbf cb94 4bbf
00000020: 54e5 f4bf 64c6 21c0 8b75 78bd 72c1 86be
00000030: 6cc1 9d3f 01c3 1040 bc0c 42bf 3871 fbbe
0.9365864 2.3240016 -0.42341787 -1.3749844 0.584571 2.5983868 -0.55004454 -0.79523915
-1.9132485 -2.5277338 -0.060658973 -0.26319462 1.2324653 2.261902 -0.7580068 -0.49109817

lstm.weight_hh_l0 f4 [16, 4]
00000000: cc8d d8bd ea1d 213e 86e6 2bbf 47b7 c4be
00000010: 326a 463f 9d50 8ebd 092e 73bf 0684 1e3f
00000020: 90bf 0e3e b1f7 9bbd bf39 513d 4902 75be
00000030: 4aae 2a3f a56f d33e c538 e5bd e3d3 153e
00000040: b456 023d 3048 263f 11e2 303c 31b5 2dbe
00000050: 74b0 173e 5e0a 5abd bf87 83bf 0475 e93e
00000060: 7620 2f3f 20ee 343e a2a9 cf3e d577 bebe
00000070: 4bfa 553f e15b f73d b460 3fbe 1bd1 b8be
00000080: 24bf 39bf a33d 0ebf ef8e e83e a86a b6be
00000090: 26a3 24bf 5844 84bd 9c8f 463f 44cc f4be
000000a0: c637 0dbf cc37 0dbf fe84 d7b9 ace0 503e
000000b0: ecd5 3e3e 1ec4 a73e 897a 273f 748d 2abf
000000c0: fa82 39be 6656 82bd e549 2b3e 57be 4e3e
000000d0: 1cde 293f ccee 5cbe 13c7 61be 1956 5f3e
000000e0: ef45 793e 40f4 023f 0924 e0be a566 493d
000000f0: 9ad2 633f 8e7a 7d3f c97f d03e 4856 b5be
-0.105739206 0.15734068 -0.67148626 -0.3842108 0.7750579 -0.069489695 -0.9499212 0.619202
0.13940263 -0.07615603 0.05108046 -0.23926653 0.66672194 0.41296116 -0.111924686 0.1463161
0.031820968 0.649539 0.010796086 -0.1696365 0.14813405 -0.053232543 -1.0275801 0.45597088
0.68408906 0.17668962 0.40559107 -0.372008 0.8358504 0.120780714 -0.18689233 -0.36097035
-0.7255728 -0.555628 0.4542155 -0.35628247 -0.64311445 -0.06458348 0.7756288 -0.47812092
-0.5516323 -0.55163264 -0.00041107083 0.20398206 0.18636292 0.32766813 0.6542135 -0.6662209
-0.1811637 -0.063641354 0.16727407 0.20189796 0.66354537 -0.21575469 -0.22048597 0.21810187
0.24343084 0.51153946 -0.43777493 0.049170155 0.8899323 0.9901513 0.40722492 -0.3541739

lstm.bias_ih_l0 f4 [16]
00000000: c251 b0be 0acc 06bf 83ac 1abf e04a 63bf
00000010: a1c7 b9bd 0a6b 12bf 83a7 3dbe 06c8 f9be
00000020: 9041 383e e7d4 1abe fed8 1ebe 4539 91be
00000030: 0dff 51bf cb91 b8be bc5c f1bd 0d3e 15bf
-0.34437376 -0.5265509 -0.6041948 -0.88786125 -0.09071279 -0.5719458 -0.18520932 -0.48785418
0.1799376 -0.15120278 -0.15512463 -0.28364006 -0.820298 -0.3604873 -0.11785266 -0.58297807

lstm.bias_hh_l0 f4 [16]
00000000: 328d 203e 61bd 1abf cb90 1cbf db9d 37be
00000010: 656f 4abf 64e0 fbbe ca10 b539 a61e b3be
00000020: 66af 513d 2fa0 c7bd 8a6b c93e 876b 733e
00000030: 09cb 1cbf 0df0 80be 30a3 64bf 8518 5abf
0.15678862 -0.6044522 -0.61158437 -0.17931311 -0.79076225 -0.49194634 0.0003453552 -0.3498432
0.051192664 -0.097473495 0.39339858 0.23771487 -0.6124731 -0.25183144 -0.89311504 -0.85193664

fc.weight f4 [1, 4]
00000000: 07e9 72be 59c1 efbe af69 283c 406b 2ebd
-0.23721705 -0.468272 0.010279103 -0.04258275
