results/models/LSTM_model2.pth (torch, 3312 bytes, 6 tensors)

lstm.weight_ih_l0 f4 [16, 2]
0	0x3ede9d92	0.43479592
1	0x3e3a6c20	0.18205309
2	0xc0042c58	-2.0652065
3	0xbf5b4789	-0.8565603
4	0xbef1a7a9	-0.47198227
5	0xbf513f3c	-0.81737113
6	0xbd028551	-0.03186542
7	0xbbac5eea	-0.005260338
8	0xbea11661	-0.31462386
9	0xbeecbc99	-0.4623764
10	0xbf9c3c5a	-1.2205918
11	0xbf2b4714	-0.6690533
12	0xbf1be6ac	-0.6089885
13	0xbf4e59b1	-0.8060561
14	0xbf409eef	-0.75242513
15	0xbf28079b	-0.65636605
16	0x401db8e5	2.46441
17	0xbd8404d1	-0.06446231
18	0x3fcb5eea	1.588834
19	0xbeea9f03	-0.4582444
20	0xbe80e8f6	-0.25177735
21	0xbe228b9b	-0.15873568
22	0xbfcd11b3	-1.6021026
23	0xbe047130	-0.12933803
24	0x3ecc1bbb	0.39864907
25	0x3c0c06e2	0.008546563
26	0xbfc03828	-1.5017138
27	0xbe625e20	-0.22106218
28	0xbf242423	-0.6411764
29	0xbe31a6f1	-0.1734884
30	0xbec05102	-0.37561804
31	0xbf294efe	-0.6613616

lstm.weight_hh_l0 f4 [16, 4]
0	0x3d31c837	0.04340383
1	0x3d17e8ee	0.037087373
2	0x3e19cbca	0.15019146
3	0x3dd85a81	0.10564137
4	0x3f563d0c	0.836869
5	0x3f50f117	0.81617874
6	0x3f2c4476	0.67291963
7	0xbe5e05fb	-0.21681969
8	0x3e8fc704	0.28081524
9	0x3f0e53d6	0.55596673
10	0x3f1a3d45	0.6024974
11	0xbe8ec631	-0.27885583
12	0x3e755b43	0.23960595
13	0x3f32cdee	0.69845474
14	0x3e0d52a0	0.1380105
15	0x3e81e1dc	0.2536763
16	0x3cf62ed6	0.03005163
17	0x3e4c2d1c	0.19939083
18	0x3ee68be6	0.4502861
19	0xbeb52d01	-0.35385898
20	0xbdfef7c5	-0.12449602
21	0x3f3a6375	0.7280801
22	0x3c0c796a	0.008573869
23	0x3dee74d5	0.11643378
24	0x3eb523a7	0.35378763
25	0x3d59256c	0.053014204
26	0x3eae9298	0.34096217
27	0x3e7be1f6	0.24597916
28	0x3ea6f39a	0.32607728
29	0x3f0931dc	0.53591704
30	0x3e63f284	0.22260481
31	0xbed741ac	-0.4204229
32	0xbf902137	-1.1260136
33	0x3e3378ee	0.175266
34	0xbe094ee5	-0.13409002
35	0x3ec36b8f	0.38167998
36	0xbf8f3daf	-1.1190699
37	0xbf82ba1a	-1.0213044
38	0xbdec2758	-0.11530942
39	0x3f82b5f5	1.0211779
40	0xbe23f7cf	-0.160125
41	0xbe063053	-0.13104372
42	0xbd390a67	-0.045175936
43	0x3f015cd9	0.505323
44	0x3ed25758	0.41082263
45	0xbdf9cbe4	-0.12197092
46	0x3e005ddf	0.12535809
47	0xbf7df947	-0.9920849
48	0xbe174c68	-0.1477524
49	0x3ee24ace	0.44197696
50	0x3e2e7f37	0.17040716
51	0x3da1f3e2	0.07907845
52	0x3f0dd008	0.55395555
53	0x3f3d9e89	0.7407003
54	0x3edfda19	0.43721083
55	0xbf0ef058	-0.55835485
56	0x3f143d04	0.579056
57	0x3e9e194c	0.30878675
58	0x3e8200ec	0.25391328
59	0xbf0d0617	-0.5508742
60	0x3f020c7f	0.5080032
61	0x3efb0907	0.49030325
62	0x3f238d1a	0.6388718
63	0x3e672ca8	0.22575629

lstm.bias_ih_l0 f4 [16]
0	0x3f17e040	0.59326553
1	0xbf2f6fcc	-0.68529963
2	0xbf19f06f	-0.601325
3	0xbede0def	-0.43370005
4	0xbedffc1e	-0.43747038
5	0xbf157658	-0.58383703
6	0xbefdb23f	-0.49550053
7	0xbf23b7c1	-0.6395226
8	0xbe3a2fd2	-0.18182305
9	0x3ca54292	0.020173345
10	0x3eda1932	0.42597347
11	0x3dc179ed	0.094470836
12	0xbef69811	-0.48162892
13	0xbe85e785	-0.26153198
14	0xbf763e9b	-0.9618928
15	0x3dc46758	0.09590024

lstm.bias_hh_l0 f4 [16]
0	0x3f0671c0	0.5251732
1	0xbed83abe	-0.42232317
2	0xbee23446	-0.44180506
3	0xbf62dd31	-0.8861876
4	0xbec1f104	-0.37879193
5	0xbf52fd0f	-0.82417387
6	0xbf1a180c	-0.6019294
7	0xbf557128	-0.8337579
8	0xbf1bbe7a	-0.6083752
9	0xbef8b414	-0.4857489
10	0xbe84ff4a	-0.2597602
11	0x3ef8e79d	0.48614207
12	0x3e906da8	0.2820866
13	0xbdd9a64b	-0.10627421
14	0xbe206944	-0.15665156
15	0xbf39e35e	-0.7261256

fc.weight f4 [12, 4]
0	0x3f2b59d5	0.6693395
1	0x3de4a1bd	0.11163662
2	0xbf223852	-0.6336719
3	0x3b377dde	0.0027998607
4	0x3f269508	0.65071154
5	0x3e847fbe	0.2587871
6	0xbf0b756b	-0.5447604
7	0x3dbbacb6	0.09163801
8	0x3f03b470	0.514472
9	0x3f50f9de	0.8163127
10	0xbe8476c5	-0.25871864
11	0xbf18b1e7	-0.5964646
12	0x3f191e82	0.59812176
13	0x3efb6895	0.49103227
14	0x3ee458f0	0.44599104
15	0xbe1b8fd1	-0.1519158
16	0x3f114a91	0.56754404
17	0x3c26fb73	0.010191786
18	0xbd964659	-0.073376365
19	0xbf00e452	-0.5034839
20	0x3ef48d75	0.47764173
21	0x3f51ae6d	0.8190678
22	0x3e276ef1	0.16350915
23	0xbf0c92f6	-0.54911745
24	0x3f0c921a	0.54910433
25	0xbe17698c	-0.14786357
26	0x3d2bc63b	0.041937094
27	0xbecceb9a	-0.400235
28	0x3f0aff40	0.5429573
29	0x3e656cf6	0.22404847
30	0x3dd6ed12	0.10494436
31	0xbd1b84fa	-0.037968613
32	0x3f050074	0.51953816
33	0x3e349563	0.17635112
34	0xbe24abca	-0.16081157
35	0xbdbff811	-0.09373487
36	0x3efddd21	0.4958277
37	0xbdffe982	-0.1249571
38	0xbdf4a95a	-0.11946364
39	0xbe93635a	-0.28786737
40	0x3ec9a138	0.39380813
41	0x3f50314f	0.8132524
42	0x3e161de6	0.14659843
43	0xbee944ad	-0.45560208
44	0x3ec25420	0.37954807
45	0x3e96f577	0.2948415
46	0x3f0affc4	0.5429652
47	0xbf46e99d	-0.77700216

fc.bias f4 [12]
0	0x3e30e373	0.17274265
1	0x3e2634aa	0.16231027
2	0x3e2949d8	0.16532075
3	0x3e262f6b	0.16229026
4	0x3e2b7ce8	0.16746867
5	0x3e24e306	0.16102228
6	0x3e1f021c	0.15528148
7	0x3e1ca22d	0.1529624
8	0x3e1b2aa2	0.15152982
9	0x3e17df72	0.14831331
10	0x3e1c0c23	0.15239005
11	0x3e17e15a	0.14832059
