results/models/LSTM_model_0.pth (torch, 3066 bytes, 5 tensors)

lstm.weight_ih_l0 f4 [16, 1]
-0.05999338 0.27387407 -0.5958014 -0.25642475 -0.35243714 0.081097685 -0.22795042 0.02014253
-0.1927456 -1.3838474 -0.8015146 0.26456144 -0.50173795 -0.36690003 -0.57248765 -0.09483194
00000000: 9ebb 75bd 3939 8c3e 7186 18bf 1b4a 83be
00000010: a472 b4be 8b16 a63d d66b 69be f201 a53c
00000020: 1a5f 45be e921 b1bf 1030 4dbf 9974 873e
00000030: e671 00bf 52da bbbe 8d8e 12bf 4037 c2bd

lstm.weight_hh_l0 f4 [16, 4]
0.066541575 0.12591606 0.4936985 0.4649953 0.37940475 -0.26463297 0.56351405 0.31551233
-0.23432595 -0.12001839 -0.021868723 0.061330143 -0.030374555 -0.12637672 0.058673885 -0.29964605
0.24145025 -0.6202442 0.016903358 0.7754876 0.33754218 -0.1873993 0.02228072 0.57805175
-0.00056679815 0.17219098 0.28221008 0.43807098 0.40397137 -0.19670324 0.2526954 -0.12776192
-0.07536315 -0.13532825 -0.40461722 0.11389462 0.29063705 0.013396495 0.3350053 0.41894475
-0.32642388 -0.3232831 -0.2890695 -0.63448703 0.023311118 -0.086403854 -0.33342493 -0.06250187
-0.020653926 -0.18834764 0.45111385 0.73760307 -0.15195185 0.062030092 0.052984226 0.2793371
0.29462332 -0.4065812 -0.098393336 0.5106444 0.15963276 -0.42479417 0.8588444 -0.49477085
00000000: f346 883d 24f0 003e 0dc6 fc3e dd13 ee3e
00000010: 5741 c23e f97d 87be 7542 103f d58a a13e
00000020: 24f3 6fbe 34cc f5bd 0926 b3bc 5135 7b3d
00000030: 0fd4 f8bc e668 01be 0754 703d 356b 99be
00000040: bc3e 773e 53c8 1ebf e978 8a3c 5b86 463f
00000050: 54d2 ac3e 9ae5 3fbe 0e86 b63c 33fb 133f
00000060: 2e95 14ba d552 303e d77d 903e d74a e03e
00000070: 56d5 ce3e 936c 49be 4b61 813e 05d4 02be
00000080: ff57 9abd 7d93 0abe fd29 cfbe 9541 e93d
00000090: 61ce 943e f97c 5b3c d185 ab3e ed7f d63e
000000a0: 0821 a7be 5d85 a5be eb00 94be be6d 22bf
000000b0: f5f6 be3c 81f4 b0bd acb6 aabe fb00 80bd
000000c0: 6c32 a9bc 34de 40be 65f8 e63e 8ed3 3c3f
000000d0: 4499 1bbe 4413 7e3d fd05 593d 4605 8f3e
000000e0: ded8 963e 692b d0be 7282 c9bd 97b9 023f
000000f0: c576 233e 9f7e d9be 3add 5b3f 9b52 fdbe

lstm.bias_ih_l0 f4 [16]
-0.090188906 0.23334908 -0.6473986 0.017737005 -0.49913982 -0.05756799 -0.2274569 -0.61157584
0.5131201 0.08987191 -0.036606126 -0.1153291 0.10658278 0.6288131 0.20958418 0.022163201
00000000: f6b4 b8bd 10f3 6e3e eabb 25bf 324d 913c
00000010: 418f ffbe 6acc 6bbd 76ea 68be 3c90 1cbf
00000020: d75b 033f c40e b83d 4ef0 15bd aa31 ecbd
00000030: 1348 da3d e5f9 203f 3c9d 563e 9a8f b53c

lstm.bias_hh_l0 f4 [16]
-0.31385505 -0.24748708 -0.10844353 -0.726585 0.091319986 -0.076257914 0.1872403 -0.59530944
-0.39993918 0.38826993 0.3425283 0.108385175 -0.07727321 0.07099212 -0.30920574 -0.070313305
00000000: 9cb1 a0be 416d 7dbe a417 debd 7901 3abf
00000010: f905 bb3d 1c2d 9cbd ecbb 3f3e 3366 18bf
00000020: d4c4 ccbe 51cb c63e df5f af3e 0cf9 dd3d
00000030: 6b41 9ebd 5164 913d 3750 9ebe 6c00 90bd

fc.weight f4 [1, 4]
0.005661945 -0.5660603 -0.13474938 0.167682
00000000: d687 b93b 54e9 10bf befb 09be d5b4 2b3e
