results/models/LSTM_model_1.pth (torch, 3066 bytes, 5 tensors)

lstm.weight_ih_l0 f4 [16, 1]
-0.9131349 1.289644 1.639218 1.2628926 -0.6039591 0.6533723 0.4880873 0.6448302
0.8048071 1.7919633 -1.7264324 0.7772385 -0.5049184 1.8793051 0.9262611 1.4223441
00000000: 35c3 69bf 0e13 a53f e5d1 d13f 77a6 a13f
00000010: 109d 1abf 6843 273f 94e6 f93e 9813 253f
00000020: d707 4e3f 0e5f e53f bdfb dcbf 1af9 463f
00000030: 5542 01bf 128d f03f 731f 6d3f 5f0f b63f

lstm.weight_hh_l0 f4 [16, 4]
-0.5202338 0.08022548 0.48059207 0.13696738 0.0064058076 -0.5149426 0.12022256 -0.2127557
-0.5520938 0.041285053 0.43987545 -0.6079115 0.4441018 -0.6035282 0.5197552 -0.6920028
0.16311184 -0.2461886 -0.09644455 0.2514181 -0.25143284 -0.5880917 1.160273 -0.59529275
0.31876692 -0.5161573 0.32831725 -0.028523125 0.2602017 -0.33519801 -0.030055208 -0.5799722
-0.31782922 -0.09532533 0.13332815 0.10428552 0.19917998 -0.52324593 0.93458986 -0.16220249
-0.201463 0.20570815 -0.25155845 0.42140448 0.3008651 -0.41178602 0.25542605 -0.7362191
-0.61897844 0.012228126 0.15214205 0.49144235 0.034529407 -0.36459088 0.08825865 0.1598494
-0.47629976 -0.028574841 1.0052683 -0.22464257 0.2502175 -0.5436187 0.6008409 -0.75920296
00000000: 0b2e 05bf 424d a43d 2a10 f63e 2d41 0c3e
00000010: cfe7 d13b 47d3 03bf 3f37 f63d a1dc 59be
00000020: 0556 0dbf 841a 293d 5b37 e13e 17a0 1bbf
00000030: 5061 e33e d380 1abf ad0e 053f 1827 31bf
00000040: ca06 273e dd18 7cbe b884 c5bd e0b9 803e
00000050: cebb 80be 2d8d 16bf d383 943f 1b65 18bf
00000060: 6b35 a33e e322 04bf 3319 a83e 54a9 e9bc
00000070: 2839 853e 139f abbe 5736 f6bc 0f79 14bf
00000080: 83ba a2be ed39 c3bd 2d87 083e a693 d53d
00000090: d6f5 4b3e 72f3 05bf 4841 6f3f 6918 26be
000000a0: 514c 4ebe 28a5 523e 45cc 80be 54c2 d73e
000000b0: fe0a 9a3e 9ed5 d2be 34c7 823e db78 3cbf
000000c0: 5f75 1ebf 7a58 483c 20cb 1b3e 559e fb3e
000000d0: b56e 0d3d a8ab babe f3c0 b43d 90af 233e
000000e0: 90dd f3be c915 eabc a2ac 803f b408 66be
000000f0: 821c 803e 982a 0bbf b6d0 193f 205b 42bf

lstm.bias_ih_l0 f4 [16]
-0.003373978 -0.036274966 -0.27507254 -0.14091356 -0.038185693 -0.659468 -0.76048994 -0.40033698
-0.28402498 -0.53780884 0.13837647 0.08994334 -0.6399388 -0.42609254 -0.46997648 -0.4743266
00000000: f51d 5dbb 0f95 14bd 4fd6 8cbe a54b 10be
00000010: 9a68 1cbd e5d2 28bf 78af 42bf f8f8 ccbe
00000020: b96b 91be d7ad 09bf 90b2 0d3e 3734 b83d
00000030: 07d3 23bf cd28 dabe c2a0 f0be f0da f2be

lstm.bias_hh_l0 f4 [16]
-0.55304056 0.16120726 -0.35937715 -0.43003806 -0.27786553 -1.0134772 -0.6108531 -0.8475915
-0.07020341 0.28419727 0.13344638 0.021260716 -0.72774273 0.06448138 -0.522968 -0.7725727
00000000: 1194 0dbf 8413 253e 4800 b8be f32d dcbe
00000010: 6444 8ebe 9fb9 81bf de60 1cbf c2fb 58bf
00000020: cec6 8fbd 4e82 913e 2ba6 083e f42a ae3c
00000030: 594d 3abf d00e 843d 3be1 05bf 53c7 45bf

fc.weight f4 [1, 4]
0.113458276 0.6396122 -0.47944516 0.41204137
00000000: d05c e83d a0bd 233f d679 f5be 16f7 d23e
