results/models/LSTM_model_0.pth (torch, 3066 bytes, 5 tensors)

lstm.weight_ih_l0 f4 [16, 1]
0	0xbf17cbb3	-0.59295195
1	0x3dd2e07c	0.10296723
2	0xbe284924	-0.16434151
3	0x3e76a2f5	0.240856
4	0xbd13e883	-0.036110412
5	0xbeaa91ba	-0.33314306
6	0xbf2f4402	-0.68463147
7	0x3e562e6c	0.20916146
8	0x3f9185e2	1.1368983
9	0x3f57b080	0.8425369
10	0xbd318d66	-0.04334774
11	0xbe8fb668	-0.28068852
12	0x3e8ad537	0.27115795
13	0x3ea44fcf	0.3209214
14	0xbe4b9b2e	-0.19883415
15	0xbcc89c72	-0.024488661

lstm.weight_hh_l0 f4 [16, 4]
0	0x3e066bc1	0.13127042
1	0xbea5367a	-0.32268125
2	0x3e5736d0	0.21017003
3	0x3e2e5f54	0.17028552
4	0x3f161fa1	0.5864201
5	0x3f11a8b1	0.5689803
6	0xbeac2ba4	-0.33627045
7	0xbf012626	-0.50448835
8	0x3dd62126	0.10455541
9	0x3e84a6fa	0.25908643
10	0xbe85970a	-0.26091796
11	0xbe803162	-0.25037676
12	0x3f09dd45	0.53853256
13	0xbe87cc47	-0.2652304
14	0xbbfcf481	-0.007719577
15	0xbd9279df	-0.07152151
16	0xbd48706e	-0.048935346
17	0xbe3749e0	-0.17899275
18	0xbca2ad5d	-0.019858057
19	0x3dfe00e6	0.12402515
20	0x3de3bc32	0.1111988
21	0x3f28a7e7	0.658812
22	0xbe4b3153	-0.19843034
23	0xbef7b93b	-0.48383507
24	0x3f4d43a3	0.8018133
25	0x3f2bee74	0.67160726
26	0x3f0d0276	0.5508188
27	0x3e95033f	0.2910404
28	0x3ecf1ace	0.40450138
29	0xbe7fac55	-0.24968083
30	0xbe2ad2a1	-0.16681911
31	0x3dea9a59	0.11455221
32	0xbae66d58	-0.0017580194
33	0x3f1f4f4f	0.6223039
34	0x3e1f68a0	0.15567255
35	0xbefdc6af	-0.49565646
36	0xbf3671f4	-0.7126763
37	0x3db30255	0.08740679
38	0xbe24dc04	-0.16099554
39	0x3e704941	0.23465444
40	0xbf2b16fe	-0.6683196
41	0xbf1fa4e9	-0.6236101
42	0xbee9d61c	-0.45671165
43	0x3e7bc58b	0.24587075
44	0x3f0abc85	0.5419391
45	0x3efcb2ca	0.49355155
46	0x3ea1ed1e	0.3162622
47	0xbefb986f	-0.49139735
48	0x3c79d686	0.0152489
49	0xbf41f217	-0.75760025
50	0xbf3a1e28	-0.72702265
51	0x3f2ce40a	0.6753546
52	0x3f4c4f0c	0.79808116
53	0x3d9e54fa	0.07731052
54	0x3de5a39b	0.11212846
55	0xbb6a31d4	-0.0035735266
56	0x3f187594	0.5955441
57	0x3e6bfbbf	0.23045252
58	0x3f07a18c	0.52980876
59	0xbdabec8d	-0.08394728
60	0x3e6938cd	0.22775574
61	0x3ee4684d	0.44610825
62	0x3e62cf9d	0.2214951
63	0x3daba7d3	0.08381619

lstm.bias_ih_l0 f4 [16]
0	0x3ef67c9f	0.48141953
1	0xbf4d92cb	-0.80302113
2	0x3bd9cb84	0.0066465754
3	0xbed79910	-0.42108965
4	0xbe562881	-0.20913889
5	0xbd8ea1ae	-0.06964432
6	0xbe9a87bc	-0.30181682
7	0xbe804291	-0.25050786
8	0xbedcdbd4	-0.43136466
9	0x3d6a8c5e	0.05726277
10	0x3e7e8c71	0.24858262
11	0xbe0a250b	-0.13490693
12	0xbe879950	-0.26484156
13	0xbd7eca8b	-0.06220488
14	0xbe79ff28	-0.2441374
15	0xbe05f786	-0.13082704

lstm.bias_hh_l0 f4 [16]
0	0x3f056767	0.52110904
1	0xbf1efd5c	-0.62105346
2	0xbf2a41d8	-0.6650672
3	0xbeb57fa7	-0.35448954
4	0x3eb8f7a1	0.36126426
5	0xbf58d5f2	-0.84701455
6	0xbe9011d1	-0.28138593
7	0xbe48b9ff	-0.19602202
8	0xbc853827	-0.016262127
9	0xbe6c1cc8	-0.23057854
10	0xbd6fda6b	-0.05855791
11	0x3a892b72	0.0010465218
12	0xbdd08b43	-0.10182812
13	0xbf273973	-0.65322036
14	0xbf35b1e7	-0.7097458
15	0x3d3ba70d	0.04581361

fc.weight f4 [1, 4]
0	0x3f36e7a2	0.71447194
1	0x3dc1d0b7	0.09463637
2	0xbd2ea93a	-0.042641856
3	0xbce61018	-0.028083846
