results/models/LSTM_model_0.pth (torch, 3066 bytes, 5 tensors)

lstm.weight_ih_l0 f4 [16, 1]
0	0x3fcb7cc4	1.589745
1	0xbf79bf1b	-0.9755723
2	0xbdb27c93	-0.08715167
3	0xbeb9ba29	-0.3627484
4	0x3fcc3d7b	1.5956262
5	0xbf12044b	-0.570378
6	0xbef73824	-0.4828502
7	0x3a4cca01	0.00078120833
8	0x400e5a32	2.224255
9	0xbf13d993	-0.57753867
10	0xbf362b54	-0.71159863
11	0xbdb77b70	-0.08959091
12	0x3fafaf8b	1.3725446
13	0xbf1e6f04	-0.61888146
14	0x3cfa0c5b	0.03052347
15	0xbf30d636	-0.6907686

lstm.weight_hh_l0 f4 [16, 4]
0	0xbf1d155a	-0.61360705
1	0xbee09088	-0.4386027
2	0xbe190c0a	-0.14945999
3	0x3e181cdb	0.14854757
4	0xbf6d7b7e	-0.9276656
5	0xbec52247	-0.38502714
6	0xbf47e037	-0.780765
7	0x3e734d2a	0.23759905
8	0xbf21ddc4	-0.6322901
9	0x3eb044de	0.34427541
10	0x3e1de897	0.15420757
11	0x3f2b0747	0.6680798
12	0xbd22a3b8	-0.039706916
13	0x3edfe2e0	0.4372778
14	0xbd9a7990	-0.075427175
15	0xbcce0fed	-0.025154078
16	0x3e6d72b1	0.23188283
17	0x3ec96932	0.3933807
18	0x3e848533	0.25882873
19	0x3d6b8558	0.057500213
20	0xbf12883a	-0.57239115
21	0x3e301f10	0.1719935
22	0xbe5883fb	-0.21144097
23	0x3e49d997	0.1971191
24	0xbf18ae65	-0.59641105
25	0x3ea9613d	0.33082
26	0x3eb6e521	0.35721686
27	0xbbd7e3e3	-0.0065884455
28	0xbe8f33c4	-0.27969182
29	0x3d6740f2	0.05645842
30	0x3ca47bc7	0.020078553
31	0x3e8aabd5	0.27084222
32	0xbf8413f5	-1.031859
33	0x3ea55ca4	0.32297242
34	0x3d90c0e0	0.07068038
35	0x3e1ef725	0.15523966
36	0x3dbdd02c	0.09268221
37	0xbf979e8d	-1.1845261
38	0xbcbebb29	-0.023282604
39	0x3d0cd07e	0.03437852
40	0x3e75e53c	0.24013227
41	0xbf1e6a1b	-0.61880654
42	0xbf8ba825	-1.0910689
43	0xbed102b8	-0.40822387
44	0x3e78ea00	0.24308014
45	0x3e181b44	0.14854151
46	0xbe1c3fa2	-0.15258649
47	0xbf06b0ff	-0.52613825
48	0x3e4976ef	0.19674276
49	0xbec9e242	-0.39430434
50	0x3eb31df0	0.34983778
51	0xbefdc636	-0.49565285
52	0xbeea414b	-0.4575294
53	0xbdb1552e	-0.08658825
54	0xbea42c39	-0.3206499
55	0x3f646d5a	0.8922936
56	0xbf9f95fb	-1.2467645
57	0xbe25121f	-0.16120194
58	0x3df25d43	0.118341945
59	0x3f495740	0.7864876
60	0xbc8c8cef	-0.017157046
61	0x3db94c26	0.09047727
62	0x3eaf791a	0.3427208
63	0x3db6a5fa	0.08918376

lstm.bias_ih_l0 f4 [16]
0	0xbd13e13d	-0.036103476
1	0xbf29c6bc	-0.6631887
2	0xbf8c9155	-1.0981852
3	0xbf04b831	-0.51843554
4	0xbda74b43	-0.08168652
5	0xbf34cf41	-0.70628744
6	0xbefb673c	-0.491022
7	0xbacb02a2	-0.0015488456
8	0xbe2073d9	-0.15669192
9	0xbecdea7b	-0.40217957
10	0x3e571561	0.21004249
11	0xba45093a	-0.00075163285
12	0xbdd919b0	-0.106006026
13	0xbf2c1885	-0.67224914
14	0xbfa49abf	-1.2859725
15	0xbe91b98b	-0.2846187

lstm.bias_hh_l0 f4 [16]
0	0xbee7da25	-0.4528362
1	0xbf3d7856	-0.74011743
2	0xbf8707bc	-1.0549235
3	0xbf73c64c	-0.9522445
4	0xbee8141e	-0.45327848
5	0xbf9770d3	-1.1831306
6	0xbf9651bf	-1.1743697
7	0xbf3c30f1	-0.7351218
8	0xbd9a47ef	-0.075332515
9	0x3ee812f3	0.45326957
10	0x3ec78df4	0.3897549
11	0xbc16ccbb	-0.009204085
12	0x3e8f4461	0.27981856
13	0xbf8e9c3e	-1.1141431
14	0xbf87d99f	-1.0613288
15	0xbf38cde4	-0.72189164

fc.weight f4 [1, 4]
0	0x3f14b2cc	0.5808532
1	0xbced6f4c	-0.028983735
2	0x3c5edcfc	0.0136024915
3	0xbcae3c9e	-0.021269139
