results/models/LSTM_model_0.pth (torch, 3066 bytes, 5 tensors)

lstm.weight_ih_l0 f4 [16, 1]
0	0xbf86fbdf	-1.0545615
1	0x3c2558f3	0.010092008
2	0x3e1e436a	0.15455404
3	0xbffb292e	-1.9621942
4	0xbffc03ce	-1.9688661
5	0xbef09e19	-0.4699562
6	0xbe9ac6d0	-0.30229807
7	0xbf72b96d	-0.9481419
8	0xc02ea76b	-2.7289684
9	0x3fa69b37	1.3016118
10	0x3faea1b3	1.3643097
11	0xbdd4ac67	-0.10384446
12	0xc0004592	-2.0042462
13	0xbf506fad	-0.81420404
14	0x3c616dad	0.013759059
15	0xbfc7c983	-1.5608371

lstm.weight_hh_l0 f4 [16, 4]
0	0x3eee274f	0.46514365
1	0xbf182800	-0.59436035
2	0xbe25a905	-0.16177757
3	0xbf524570	-0.82137203
4	0xbc34f228	-0.011044063
5	0xbe097509	-0.13423552
6	0x3ba75670	0.0051067397
7	0x3f500b46	0.812672
8	0x3e45b31e	0.19306609
9	0x3e944e12	0.28965813
10	0x3f4b9812	0.79528916
11	0xbcc64ae8	-0.02420564
12	0xbf1e4b10	-0.61833286
13	0x3f2d015a	0.6758019
14	0x3f228d77	0.6349711
15	0x3e185afc	0.14878458
16	0xbdb8d38d	-0.09024725
17	0xbf16325b	-0.58670586
18	0xbda40c00	-0.08010101
19	0xbc05d239	-0.008167797
20	0x3f25d627	0.64779896
21	0xbc0d175b	-0.008611525
22	0x3d0f0b6f	0.034923013
23	0x3f066591	0.5249873
24	0xbf3570bd	-0.7087515
25	0xbc8bdeb8	-0.017073974
26	0x3f011cd2	0.504346
27	0xbf0dbd7a	-0.55367243
28	0xbce04892	-0.027378354
29	0x3ef6b7e1	0.48187163
30	0x3f075621	0.528658
31	0x3ee918a1	0.45526603
32	0xbf9021ab	-1.1260275
33	0x3f52cda8	0.82345057
34	0x3f923d54	1.1424966
35	0xbf4efdf0	-0.8085623
36	0x3eafb745	0.3431951
37	0xbfb62330	-1.4229488
38	0xbe881113	-0.26575527
39	0xbe90d34d	-0.2828621
40	0xbdbc66f0	-0.09199321
41	0xbe9a4ef0	-0.3013835
42	0xbdcd20a7	-0.100159936
43	0x3ed2b811	0.41156057
44	0xbeaaae9d	-0.33336344
45	0xbe8e24a9	-0.27762344
46	0xbeb040ee	-0.34424537
47	0xbd29de11	-0.041471545
48	0xbeae3866	-0.34027404
49	0xbdb7b564	-0.089701444
50	0x3ce005c9	0.027346509
51	0x3d261e8e	0.040556483
52	0x3e17875f	0.14797734
53	0x3f452e5a	0.7702385
54	0xbe9f2f0a	-0.31090575
55	0x3f5cb185	0.86208373
56	0xbea588c7	-0.32330915
57	0xbf092b05	-0.5358127
58	0xbda6b0ca	-0.081391886
59	0xbd535683	-0.051596176
60	0xbf51ec03	-0.8200075
61	0xbcdec16d	-0.027191842
62	0x3f16bbba	0.588802
63	0x3efc2329	0.49245575

lstm.bias_ih_l0 f4 [16]
0	0x3d54f452	0.051990815
1	0xbf1b3b87	-0.60637707
2	0xbe862f0c	-0.2620777
3	0xbf125a24	-0.57168794
4	0xbf596587	-0.84920543
5	0xbf4b6322	-0.7944814
6	0x3dfb3399	0.12265701
7	0xbe0571f4	-0.13031751
8	0x3f26d066	0.6516174
9	0xbf15f152	-0.5857135
10	0xbeb4c35c	-0.35305297
11	0xbdabe6a5	-0.08393601
12	0x3e633ede	0.2219195
13	0xbf9f6b71	-1.2454664
14	0xbdd1877e	-0.10230921
15	0xbedfc36b	-0.4370378

lstm.bias_hh_l0 f4 [16]
0	0x3f2dcb88	0.6788869
1	0xbf5c86e5	-0.8614333
2	0xbf243305	-0.6414035
3	0xbf6cb9a4	-0.92470765
4	0xbf2ec475	-0.6826852
5	0xbfc4d1e1	-1.537655
6	0x3e21fccb	0.15819089
7	0xbedca25a	-0.43092614
8	0x3f2df494	0.6795132
9	0xbf0df8ca	-0.55457747
10	0xbdecb76b	-0.11558422
11	0xbe6ea13b	-0.23303692
12	0x3c90ba14	0.017666854
13	0xbf8ba19c	-1.0908694
14	0xbdc53daa	-0.09630902
15	0xbf8e5f46	-1.1122825

fc.weight f4 [1, 4]
0	0xbf3823a1	-0.71929365
1	0x3df99473	0.121865176
2	0x3e7e2831	0.2482002
3	0x3e093292	0.13398197
